telega_sac_agent.pt (torch, 831301 bytes, 16 tensors)

net.net.0.weight f4 [256, 7]
0	0x3e897c2b	0.26852545
1	0xbb69274e	-0.0035576406
2	0x3e537e7d	0.2065372
3	0xbe2d82e7	-0.16944467
4	0xbf8ce30b	-1.1006788
5	0x3ea0d7e3	0.31414708
6	0x3ddec401	0.108772285
7	0x3c9ccd7a	0.019140948
8	0xbf0c7af0	-0.5487509
9	0x3d873a68	0.06602937
10	0xbea545e2	-0.3227988
11	0xbf4c348f	-0.797677
12	0x3f2391d8	0.63894415
13	0x3e41b62a	0.18917146
14	0xbe8c2a19	-0.27375868
15	0x3f88b419	1.0679961
16	0x3e597794	0.21237022
17	0xbec860bc	-0.39136302
18	0x3f301fef	0.68798727
19	0xbe8c3b0d	-0.27388802
20	0x3e50d946	0.20395383
21	0xbea4641b	-0.32107624
22	0xbee007d5	-0.43755975
23	0x3e79a78e	0.24380323
24	0x3ed37e9e	0.4130754
25	0x3f82967d	1.0202175
26	0x3f640f11	0.8908549
27	0x3a00ce6a	0.00049135706
28	0x3f31785f	0.69324297
29	0x3ea19be6	0.31564254
30	0xbea04c5f	-0.31308267
31	0xbe8a78f9	-0.2704542
32	0xbfab74e5	-1.3395048
33	0x3f660543	0.8985178
34	0xbde946e7	-0.11390477
35	0xbe771e1f	-0.24132584
36	0xbd59132d	-0.052996803
37	0x3edbed7c	0.42954624
38	0x3c4f2075	0.012642016
39	0xbf9e8cff	-1.2386779
40	0x3e1800f4	0.14844114
41	0xbe1724e6	-0.1476017
42	0xbe9cdf74	-0.3063923
43	0x3e7bca77	0.24588953
44	0xbe137d50	-0.14403272
45	0x3f036afc	0.5133512
46	0x3de074f5	0.10959808
47	0x3f04760a	0.51742613
48	0xbf64604d	-0.89209443
49	0xbeda40a8	-0.42627454
50	0x3d3616f3	0.04445548
51	0xbe15a3c0	-0.14613247
52	0x3e84a2ad	0.25905362
53	0x3f24f5f3	0.6443779
54	0x3f1102a4	0.56644654
55	0x3edb65e1	0.42851165
56	0xbf54c9cb	-0.8312041
57	0x3eab1028	0.33410764
58	0x3d2606c9	0.040533815
59	0xbebc4f79	-0.36779383
60	0x3f581641	0.84408957
61	0x3f651f86	0.89501226
62	0x3b95765b	0.004561228
63	0x3e146607	0.14492045
64	0xbd5bbb1d	-0.053645242
65	0xbe3aa680	-0.18227577
66	0x3ef90ebc	0.48644054
67	0xbf6e0913	-0.92982596
68	0xbebb6dd6	-0.36607236
69	0x3d1338f8	0.035943
70	0x3efd8241	0.49513438
71	0xbc9cdd00	-0.01914835
72	0xbeb4c8b6	-0.3530938
73	0x3ecec11e	0.40381712
74	0xbeba81b6	-0.36427087
75	0x3e6c21b5	0.23059733
76	0xbe514f46	-0.20440397
77	0x3f8c618b	1.0967268
78	0xbf061661	-0.523779
79	0x3eb7d1f9	0.35902384
80	0xbdd00057	-0.10156315
81	0xbe85324c	-0.26014936
82	0x3d3903ac	0.045169517
83	0xbe9190bb	-0.28430733
84	0x3f825337	1.0181645
85	0x3de015c9	0.10941655
86	0x3f255a48	0.64590883
87	0xbdbe43ac	-0.09290251
88	0x3f2d04e6	0.675856
89	0xbedcd2ca	-0.4312957
90	0x3ad8db62	0.0016544873
91	0xbd44696f	-0.04795211
92	0xbf1da915	-0.61586124
93	0xbd2d66b1	-0.042334262
94	0x3e1558bf	0.14584635
95	0xbf963d87	-1.1737527
96	0xbd71694b	-0.058938306
97	0xbf16a972	-0.58852303
98	0xbe98457d	-0.29740515
99	0x3e8892a6	0.26674384
100	0x3ef6f00b	0.48230013
101	0x3efeb7ba	0.49749547
102	0xbf11ba70	-0.56925106
103	0xbf219f0d	-0.6313332
104	0xbf62d3f0	-0.8860464
105	0xbed4bcef	-0.41550395
106	0x3ee30d70	0.4434619
107	0x3eb73772	0.3578449
108	0x3ede6bc3	0.4344159
109	0xbcd163e8	-0.025560334
110	0x3f5032b3	0.8132736
111	0xbe9033bc	-0.2816447
112	0x3f5dd5e8	0.8665452
113	0xbf16e1a9	-0.5893808
114	0x3d01a82d	0.031654526
115	0xbf5ec941	-0.8702584
116	0xbf099823	-0.5374777
117	0x3d92ded1	0.07171405
118	0x3e033e75	0.12816794
119	0x3d96bf11	0.07360662
120	0xbe17d055	-0.14825566
121	0xbee6fd80	-0.4511528
122	0x3eab4cf9	0.33457163
123	0xbfc5dd75	-1.5458208
124	0x3f70dc20	0.94085884
125	0xbe801833	-0.25018463
126	0xbe9c8fa6	-0.30578345
127	0xbdcdc5e5	-0.10047511
128	0x3f0ec4db	0.5576913
129	0x3dfecc11	0.12441266
130	0x3f866827	1.0500535
131	0x3f9e4ddb	1.236751
132	0xbee5bda3	-0.44871244
133	0x3d12d494	0.03584726
134	0x3f3d83d3	0.7402927
135	0x3ea2260a	0.31669647
136	0xbeeebbe2	-0.46627718
137	0xbf4494f9	-0.76789814
138	0xbf08f9f7	-0.53506416
139	0xbdd85d5e	-0.105646834
140	0xbf358854	-0.70911145
141	0xbcf2ccfa	-0.029638756
142	0x3f44d750	0.7689104
143	0xbd1818b2	-0.037132926
144	0x3f4cec51	0.8004809
145	0xbe5d1a71	-0.21592118
146	0xbde5b14f	-0.112154596
147	0xbeb736ea	-0.35784084
148	0xbf82585c	-1.0183215
149	0x3e83cda2	0.25742823
150	0x3e43044e	0.19044611
151	0xbf70bd9d	-0.94039327
152	0xbee26fcc	-0.4422592
153	0xbe5be441	-0.2147379
154	0xbe695b8b	-0.22788827
155	0xbe1449ad	-0.1448123
156	0x3db1b6f8	0.08677477
157	0xbda63db7	-0.0811724
158	0x3f52caa6	0.82340467
159	0x3f2e8715	0.6817487
160	0xbef566df	-0.47930047
161	0xbeb8d942	-0.36103255
162	0x3e88957e	0.26676553
163	0xbe84cd44	-0.25937855
164	0xbde8f0f5	-0.11374084
165	0x3f26079b	0.64855355
166	0x3c9ac07c	0.018890612
167	0xbf85d6b4	-1.0456147
168	0xbf24057b	-0.6407086
169	0x3e9c9c67	0.30588076
170	0x3f459145	0.7717479
171	0x3d9d8ac9	0.07692487
172	0xbee95cbc	-0.45578563
173	0x3ead5cf0	0.33859968
174	0xbf1469d3	-0.57973975
175	0xbec94cc6	-0.39316386
176	0xbdf058b9	-0.117356725
177	0xbe0a126e	-0.13483593
178	0xbd854e3f	-0.06509065
179	0x3e804f72	0.25060612
180	0x3fcefc5f	1.6170768
181	0xbea48330	-0.32131338
182	0x3f822db1	1.0170194
183	0x3f1480db	0.5800912
184	0x3e10624f	0.14100002
185	0xbe210ea4	-0.15728241
186	0xbf626cf4	-0.884475
187	0xbe75978e	-0.23983595
188	0x3da04779	0.07826132
189	0xbf65d6a1	-0.8978062
190	0x3ea94d96	0.33067006
191	0x3d908666	0.070568845
192	0xbeae130a	-0.339989
193	0x3e8dd50f	0.27701613
194	0xbeb4f62a	-0.35344058
195	0xbea66e89	-0.32506207
196	0xbed64feb	-0.41857848
197	0xbf865955	-1.0496012
198	0xbd29e7f8	-0.04148099
199	0x3e0fafef	0.14031957
200	0x3f0dc0fe	0.5537261
201	0x3f1f4081	0.622078
202	0xbca734da	-0.020410944
203	0xbe39a961	-0.18131019
204	0xbdc99821	-0.098434694
205	0xbe60635e	-0.21912906
206	0x3d07a9d2	0.033120938
207	0x3f9c8238	1.222724
208	0xbef42b86	-0.47689456
209	0xbea88b6a	-0.32918864
210	0xbf16509f	-0.5871677
211	0x3f6f0cb7	0.93378776
212	0xbc79257e	-0.015206693
213	0xbe43c73c	-0.1911897
214	0xbf2ac066	-0.66699827
215	0x3e3642e5	0.17798956
216	0xbf046037	-0.5170931
217	0xbf442962	-0.76625645
218	0xbea07057	-0.31335708
219	0xbdce234a	-0.100653246
220	0x3e20ad8d	0.15691204
221	0xbed4e1c7	-0.41578504
222	0x3fb829df	1.4387778
223	0xbf2b8c39	-0.6701084
224	0xbe43a543	-0.19106011
225	0x3f7bb7a5	0.98327094
226	0xbdb67734	-0.08909455
227	0xbed530f3	-0.41638908
228	0xbe6d697e	-0.23184773
229	0xbf330449	-0.69928414
230	0xbf44995d	-0.76796514
231	0xbee7eb55	-0.45296732
232	0xbf1d5c07	-0.6146855
233	0xbea43c23	-0.3207713
234	0xbd853b6c	-0.065054744
235	0x3dac04ac	0.083993286
236	0xbea46fc5	-0.32116523
237	0xbf4ffdd8	-0.8124671
238	0xbd7845c8	-0.060613424
239	0xbe547294	-0.20746833
240	0x3cbd7b43	0.023130065
241	0x3d912685	0.07087425
242	0x3f0d5cd3	0.55219764
243	0x3f4ee1db	0.8081338
244	0x3ec72c49	0.38900974
245	0x3f304942	0.6886178
246	0x3f17645e	0.59137523
247	0xbe90865a	-0.28227502
248	0x3e504240	0.20337772
249	0x3f40917a	0.7522198
250	0x3ef1e0a7	0.4724171
251	0xbef63842	-0.48089796
252	0x3de24d6f	0.110499255
253	0xbc8af239	-0.016961204
254	0x3ca06d85	0.019583473
255	0x3ed4a9d5	0.41535822

net.net.0.bias f4 [256]
0	0x3d8cb6f5	0.06870834
1	0x3d63aa00	0.055582047
2	0x3afb9f35	0.0019197228
3	0xbe9c9879	-0.30585077
4	0xbe2505e8	-0.16115534
5	0xbe2cbb19	-0.16868247
6	0xbd99c02b	-0.07507356
7	0xbeb2a522	-0.3489161
8	0xbe2785c7	-0.16359626
9	0xbde813ff	-0.11331939
10	0xbe5160cb	-0.2044708
11	0xbedff8f7	-0.43744633
12	0xbf268846	-0.65051687
13	0xbd76a45b	-0.060215335
14	0xbdcf8280	-0.10132313
15	0xbe7664ea	-0.24061933
16	0xbe95140b	-0.29116854
17	0xbec414a9	-0.38297012
18	0xbdecd37a	-0.115637735
19	0xbcb0bb90	-0.021573812
20	0xbe981b69	-0.29708412
21	0xbe91abf0	-0.2845149
22	0x3e326407	0.1742097
23	0x3e84b244	0.25917256
24	0x3d0b039c	0.03393899
25	0xbcd7037b	-0.026246777
26	0xbe3273fd	-0.17427059
27	0x3d433f8d	0.04766803
28	0xbe91dcb3	-0.28488693
29	0x3d9ac90a	0.075578764
30	0x3db8d146	0.09024291
31	0xbe8af60d	-0.27140847
32	0x3d9714e0	0.073770285
33	0xbe6137e4	-0.21993977
34	0xbe03e526	-0.12880382
35	0xbe03d5f1	-0.12874581
36	0xbdcfb0e4	-0.10141161
37	0xbe233044	-0.1593638
38	0xbdbbc165	-0.091677465
39	0x3c570d66	0.013125753
40	0xbe87c8fb	-0.26520523
41	0xbee00d1b	-0.4376
42	0xbd790a94	-0.060801104
43	0x3d508e99	0.05091724
44	0x3ca4e73f	0.020129798
45	0x3e9829dd	0.2971944
46	0xbdf04640	-0.11732149
47	0x3ce18e5f	0.027533708
48	0xbecd4066	-0.40088195
49	0xbe4c6416	-0.19960055
50	0xbe9384cd	-0.28812256
51	0x3daacd85	0.08339981
52	0x3ca0c05e	0.019622978
53	0x3e60cf29	0.21954025
54	0x3d0b0136	0.0339367
55	0x3e28956b	0.16463248
56	0xbe3c56a1	-0.18392421
57	0xbe45f41a	-0.19331399
58	0xbeb893bf	-0.3605022
59	0xbd92fbb7	-0.07176917
60	0xbe954e45	-0.29161277
61	0xbec83837	-0.3910539
62	0xbe22c96d	-0.1589715
63	0xbea1eea0	-0.3162737
64	0x3e68c38e	0.22730848
65	0xbe499e5c	-0.19689316
66	0xbe13704e	-0.1439831
67	0xbe82bbe5	-0.25533977
68	0xbe0b1976	-0.13583931
69	0xbd3cb35d	-0.04606949
70	0xbe9f656a	-0.3113206
71	0x3d90192e	0.07036053
72	0xbda92a6d	-0.08260045
73	0xbe8f663d	-0.2800769
74	0xbed5a8d6	-0.41730374
75	0xbda2bd1b	-0.07946225
76	0xbe413d47	-0.18871032
77	0xbe999ecd	-0.30003968
78	0xbcd20323	-0.025636261
79	0x3db7e1ea	0.089786366
80	0xbe741a51	-0.23838164
81	0x3d82a465	0.06379012
82	0x3df114e7	0.11771565
83	0x3e23254c	0.15932196
84	0xbdd799c0	-0.10527372
85	0xbeff6fd5	-0.4989001
86	0xbe03881d	-0.12844892
87	0xbe8634b3	-0.2621208
88	0x3e4e3ba7	0.20139943
89	0xbea51fea	-0.3225091
90	0xbecadc76	-0.39621323
91	0x3bf58294	0.0074923728
92	0x3e557017	0.2084354
93	0x3c15729a	0.009121561
94	0xbe197c97	-0.14988934
95	0xbe3e54f1	-0.1858709
96	0xbe64f520	-0.22359133
97	0x3cb8c322	0.022553984
98	0xbf120dc3	-0.5705225
99	0x3dedba16	0.11607759
100	0xbea82623	-0.32841596
101	0xbdc9086d	-0.0981606
102	0xbeaccb3c	-0.33748806
103	0x3d197fc3	0.03747536
104	0xbe1caac4	-0.15299517
105	0xbdc384ab	-0.09546789
106	0xbe6f7de8	-0.23387873
107	0x3e46e8a0	0.19424677
108	0xbe7e6bbc	-0.24845785
109	0xbddddb21	-0.10832811
110	0xbc8e71ca	-0.017388243
111	0xbcd4463b	-0.025912395
112	0xbed2254c	-0.4104408
113	0x3e439aba	0.19101992
114	0xbe15d9b6	-0.14633831
115	0xbeb01624	-0.34391892
116	0x3eccdaf9	0.40010813
117	0x3e6da0d2	0.2320588
118	0xbe99753d	-0.29972258
119	0x3dc42c3b	0.09578749
120	0x3cd3cc34	0.025854208
121	0xbe6183cb	-0.22022931
122	0xbe3b2e18	-0.18279302
123	0x3d4ee3b0	0.05051011
124	0xbdfab304	-0.12241176
125	0xbd63c13a	-0.055604197
126	0xbe921a4e	-0.28535694
127	0xbcea55ff	-0.02860546
128	0xbdd2e8b6	-0.10298292
129	0x3d006546	0.031346582
130	0xbe088e49	-0.13335527
131	0x3ddeeec4	0.10885385
132	0xbd995266	-0.074864194
133	0x3e0c5f0a	0.1370813
134	0xbeac1664	-0.33610833
135	0xbeaaf01f	-0.33386323
136	0x3d774ac8	0.06037405
137	0x3e823222	0.25428873
138	0xbe69e38b	-0.22840707
139	0xbd563009	-0.052291904
140	0xbc063c6d	-0.008193118
141	0xbee62fc1	-0.44958308
142	0xbe2e7652	-0.17037323
143	0xbda40b8b	-0.08010014
144	0xbeb9527a	-0.36195737
145	0xbf04ee0b	-0.51925725
146	0xbdcef9bc	-0.10106227
147	0xbeb36762	-0.35039812
148	0xbead6de3	-0.338729
149	0xbed1ed79	-0.4100149
150	0xbed904d7	-0.42386505
151	0xbcbf4de7	-0.023352576
152	0x3ba1c303	0.0049365773
153	0xbe005e9e	-0.12536094
154	0x3e5fcb0e	0.21854803
155	0xbddb686d	-0.10713277
156	0x3afae811	0.0019142648
157	0xbf1e83bc	-0.6191976
158	0xbe4929d8	-0.19644868
159	0xbea44f3f	-0.3209171
160	0xbe818608	-0.2529757
161	0xbdbb2cff	-0.09139442
162	0xbed373da	-0.41299325
163	0xbde5b96d	-0.11217008
164	0xbeeb83f4	-0.4599911
165	0x3e189a6d	0.14902659
166	0x3df83d79	0.121211
167	0xbe5dfe86	-0.21679124
168	0xbe67527e	-0.22590062
169	0xbea9834c	-0.33107984
170	0xbc900440	-0.017580152
171	0x3e48f76b	0.19625632
172	0xbeabbf61	-0.33544448
173	0x3dac933f	0.084265225
174	0xbf187b51	-0.59563166
175	0xbdd16089	-0.10223491
176	0xbef85dd4	-0.48509085
177	0xbec52ad1	-0.3850923
178	0xbe54d144	-0.20782954
179	0xbcbbe1e1	-0.022934856
180	0xbea06eca	-0.31334525
181	0x3e8cb345	0.27480522
182	0xbe9111d1	-0.28333905
183	0xbcc2c208	-0.023774162
184	0xbe48f7da	-0.19625798
185	0xbe77b847	-0.2419139
186	0xbec16f3d	-0.3778018
187	0xbe343adb	-0.17600577
188	0xbf02f13a	-0.5114933
189	0xbe85c5f0	-0.26127577
190	0xbec6cff6	-0.38830537
191	0xbe160c37	-0.14653097
192	0xbeb2541e	-0.348298
193	0xbd5c4bf6	-0.05378338
194	0xbea27efb	-0.31737503
195	0x3cfcb51e	0.030848082
196	0xbef77837	-0.48333904
197	0xbe3d9017	-0.18511997
198	0xbe1ada2c	-0.15122288
199	0xbc0048fe	-0.007829903
200	0xbe7ba16a	-0.24573293
201	0x3be9a544	0.007130297
202	0xbcdfb3f1	-0.027307482
203	0xbee80c50	-0.45321894
204	0xbe7a8a12	-0.24466732
205	0xbe2db7c2	-0.1696463
206	0xbebffdff	-0.3749847
207	0xbe18dbe4	-0.14927632
208	0xbdcc17bb	-0.09965464
209	0xbe824fcd	-0.25451508
210	0xbe99e455	-0.30057016
211	0x3d3180eb	0.043335836
212	0xbde70246	-0.112797305
213	0xbe8b86ee	-0.2725138
214	0x3e8e06bd	0.27739516
215	0xbeccbae5	-0.3998634
216	0xbcee0080	-0.029052973
217	0xbe45d1b7	-0.19318281
218	0xbe6732e0	-0.22578001
219	0x3e042ebd	0.12908454
220	0xbed0a567	-0.40751192
221	0xbe2cf5e1	-0.1689067
222	0xbef08cd7	-0.46982452
223	0x3eb3db00	0.3512802
224	0xbe8bd767	-0.27312776
225	0xbd42c5b5	-0.04755183
226	0xbeb4ce57	-0.35313675
227	0x3d6df825	0.058097977
228	0x3d438111	0.04773051
229	0x3d1b8d9f	0.037976857
230	0x3d8995d1	0.06718028
231	0x3e042eba	0.1290845
232	0xbec147e6	-0.37750167
233	0xbe3b4df2	-0.18291453
234	0xbe8facd1	-0.28061536
235	0xbe85d086	-0.26135653
236	0xbeb0c1fb	-0.34522995
237	0xbbdceace	-0.006741858
238	0xbe03d954	-0.12875873
239	0xbe07fe60	-0.1328063
240	0x3d90ed20	0.07076478
241	0x3d1a7408	0.037708312
242	0xbdb6b87b	-0.089219056
243	0x3dfe6534	0.12421647
244	0x3e1cfeab	0.15331523
245	0xbe01ac0f	-0.12663291
246	0xbe9f4928	-0.311105
247	0xbe24d046	-0.16095075
248	0xbe36a79e	-0.17837378
249	0x3d120b0e	0.035655074
250	0xbe3975c7	-0.18111335
251	0xbeb75750	-0.35808802
252	0xbea05a69	-0.31318977
253	0x3dc81993	0.09770503
254	0xbebc519e	-0.3678102
255	0xbe1d8334	-0.15382081

net.net.2.weight f4 [256, 256]
0	0xbf799400	-0.97491455
1	0xbfaf005a	-1.3671982
2	0x3e5c7e00	0.2153244
3	0xbe3759e3	-0.17905383
4	0xbf53c076	-0.8271555
5	0x3e3591c4	0.17731386
6	0x3b9415e9	0.0045192135
7	0x3d87b585	0.06626419
8	0x3d1bc1eb	0.03802673
9	0x3dce664a	0.10078104
10	0xbdc4b2fb	-0.0960445
11	0xbec15b98	-0.37765193
12	0xbe4e5bf9	-0.20152272
13	0xbdd50fa2	-0.10403372
14	0x3e130eac	0.14361066
15	0xbf17f04e	-0.5935105
16	0xbf5d8d46	-0.8654369
17	0xbf0e79de	-0.55654705
18	0xbf7d8cde	-0.9904307
19	0x3ec97345	0.39345756
20	0xbf9eb6eb	-1.2399572
21	0xbdad2f38	-0.08456272
22	0xbd6b1e7b	-0.057402115
23	0x3e735bb5	0.23765452
24	0xbe35fa50	-0.17771268
25	0xbfb98125	-1.4492537
26	0x3d043eca	0.032286443
27	0x3ea1cad2	0.31600052
28	0x3efd8ea2	0.49522883
29	0x3e3b249e	0.18275687
30	0x3e4d587a	0.20053282
31	0xbf133c7d	-0.5751417
32	0x3e99909b	0.29993138
33	0x3f08aa9a	0.5338532
34	0xbefe6241	-0.49684337
35	0x3ebc3155	0.36756387
36	0xbea503eb	-0.32229552
37	0x3dea9b81	0.11455441
38	0x3eac1909	0.3361285
39	0xc01304a3	-2.297158
40	0xbe62b941	-0.22140981
41	0xbd19bd82	-0.037534244
42	0x3d63f73c	0.055655703
43	0xbf0f7aab	-0.5604655
44	0xbdc3bc27	-0.095573716
45	0x3e17e89c	0.14834827
46	0xbf0f7999	-0.5604492
47	0x3de2c43c	0.11072585
48	0xbe87b1bb	-0.26502785
49	0xbed4da5c	-0.41572845
50	0x3cf01efe	0.029311653
51	0xbe629bd5	-0.22129758
52	0xbb994256	-0.0046770973
53	0x3b88a0e3	0.00416957
54	0xbd7f6459	-0.06235156
55	0xbdd851f3	-0.105625056
56	0x3ea8d459	0.32974508
57	0x3d958d15	0.073023
58	0xbd5b39d4	-0.053521946
59	0xbdbecfc8	-0.09316975
60	0x3f65686e	0.8961247
61	0xbfb342e9	-1.4004794
62	0xbdfb4008	-0.12268072
63	0xbf321577	-0.69564
64	0x3db5854b	0.08863314
65	0x3e31fb7d	0.17381091
66	0xbe8041ec	-0.25050294
67	0x3e3dce9e	0.1853585
68	0x3e0b9e27	0.13634549
69	0xbd130618	-0.035894483
70	0xbe1f69d3	-0.15567712
71	0xbdd35f7e	-0.10320948
72	0xbe37553d	-0.1790361
73	0xbe989130	-0.2979827
74	0xbe49e260	-0.19715261
75	0x3deb306e	0.114838466
76	0xbdd2d757	-0.10294979
77	0x3c05829e	0.008148817
78	0x3e440264	0.19141537
79	0x3ec73387	0.389065
80	0xbedb0968	-0.42780614
81	0xbe8ac3cf	-0.27102515
82	0xbdb9d275	-0.090733446
83	0x3e19bb92	0.15012959
84	0xbf21ff9d	-0.6328066
85	0x3e84ee5e	0.2596311
86	0xbf986027	-1.1904343
87	0x3e382acf	0.1798508
88	0xbeca9992	-0.3957029
89	0x3cc47f68	0.023986533
90	0x3cfe4ab7	0.031041486
91	0x3c6e7f11	0.014556662
92	0xbddb6da7	-0.10714274
93	0x3c6afd8f	0.01434268
94	0x3e948069	0.2900422
95	0xbd115f57	-0.035491314
96	0xbf8e8309	-1.1133739
97	0xbeca34f7	-0.39493534
98	0xbf22ea0a	-0.63638365
99	0xbe508bd2	-0.20365837
100	0xbdbe648c	-0.092965215
101	0xbf617079	-0.88062245
102	0x3e133d7d	0.14378925
103	0x3ec9c46b	0.39407668
104	0x3bd3e95c	0.0064670276
105	0xbe491f52	-0.19640854
106	0xbe828984	-0.2549554
107	0xbef3e58a	-0.47636062
108	0x3d8dbc58	0.06920689
109	0xbf1b190c	-0.60585093
110	0xbdde81b0	-0.1086458
111	0xbd82c980	-0.06386089
112	0x3da42cbc	0.08016345
113	0x3e3aae4f	0.18230556
114	0xbea23d53	-0.31687412
115	0xbce08ca5	-0.027410815
116	0xbf0ad9b2	-0.54238427
117	0xbe751156	-0.23932394
118	0x3e064e85	0.1311589
119	0x3e1f29f4	0.15543348
120	0x3eb5aca1	0.35483268
121	0x3e6026a3	0.21889739
122	0x3da1375c	0.07871887
123	0x3e6060d5	0.21911938
124	0x3e46904d	0.19390984
125	0x3e4794ca	0.19490352
126	0xbe7e9a54	-0.24863559
127	0xbebe94c5	-0.37222877
128	0x3e170851	0.14749266
129	0x3dca17c0	0.09867811
130	0xbeb63d61	-0.35593703
131	0xbe499bba	-0.19688311
132	0xbe3b3b83	-0.1828442
133	0xbe414a12	-0.18875912
134	0x3e2ce652	0.16884735
135	0x3e5bb2f1	0.2145498
136	0xbe16cc02	-0.1472626
137	0x3eb1d64b	0.34733805
138	0xbbad3c78	-0.0052867495
139	0x3e23b018	0.15985143
140	0x3e945429	0.2897046
141	0x3ebba278	0.3664739
142	0x3e15d14a	0.14630619
143	0xbf0cbe31	-0.5497771
144	0x3d5dda37	0.054163184
145	0x3cfc618f	0.030808238
146	0x3f9d3209	1.2280895
147	0xbe5afaa1	-0.2138467
148	0x3ead4551	0.33841947
149	0x3e909ae2	0.28243166
150	0x3e7767eb	0.24160735
151	0xbe1e50b1	-0.15460469
152	0x3e69cc1c	0.22831768
153	0x3eff4fb9	0.4986551
154	0x3dc24275	0.09485332
155	0x3d1ff255	0.039049465
156	0xbf039116	-0.5139326
157	0x3ee16b73	0.4402729
158	0xbe7a6273	-0.24451618
159	0xbf500e94	-0.81272244
160	0xbda71b42	-0.08159496
161	0x3dffa1d7	0.124820404
162	0x3ef5b0a5	0.47986332
163	0x3e805428	0.25064206
164	0xbf507255	-0.81424457
165	0x3a09c33d	0.0005255228
166	0x3e183291	0.1486304
167	0xbe193bbf	-0.14964198
168	0xbdd5b7c3	-0.104354404
169	0x3e8c536b	0.27407393
170	0xbc560986	-0.013063794
171	0x3d958741	0.07301188
172	0xbc2ca4e2	-0.010537358
173	0x3dd9598c	0.10612783
174	0xbe6c9295	-0.23102792
175	0x3ddf00e4	0.10888842
176	0x3e65bdd5	0.22435696
177	0x3c72e888	0.014825948
178	0x3f0fa5fc	0.5611265
179	0x3e59dc8a	0.21275535
180	0xbe154308	-0.14576352
181	0xbf9e91b6	-1.2388217
182	0xbe1e19f8	-0.15439594
183	0xbc927a01	-0.017880442
184	0xbde78f1a	-0.11306591
185	0xbeccba8a	-0.39986068
186	0x3e4b86d0	0.19875646
187	0x3ddf9ba4	0.10918358
188	0xbf15e685	-0.5855487
189	0x3e47a294	0.19495612
190	0x3e74e486	0.239153
191	0xbd077df5	-0.033079106
192	0x3e3b0f31	0.18267514
193	0x3f9fb0bc	1.247581
194	0x3e9117ad	0.28338376
195	0xbe529c06	-0.2056733
196	0xbdbbfd26	-0.091791436
197	0xbc2ddbe5	-0.010611509
198	0xbf4710c5	-0.77759963
199	0x3e76b58c	0.24092692
200	0x3d53a686	0.05167248
201	0xbe851509	-0.2599261
202	0x3e0adbe2	0.13560441
203	0xbe6aa8cf	-0.22915958
204	0xbea886fe	-0.3291549
205	0xbf144e3b	-0.5793187
206	0xbf765012	-0.9621593
207	0x3f04a0af	0.51807684
208	0x3e224d7d	0.15849872
209	0xbf0708a2	-0.5274755
210	0x3e2ed8d6	0.17074904
211	0x3d9b9276	0.075962946
212	0x3e85926f	0.26088282
213	0x3e4a5eaf	0.19762681
214	0xbefa07da	-0.48834115
215	0xbd82bb8d	-0.06383429
216	0xbed4d375	-0.4156758
217	0x3ceca26e	0.028886046
218	0x3e4451a1	0.19171764
219	0x3d5cf816	0.05394753
220	0xbd863622	-0.06553294
221	0x3e232c06	0.15934762
222	0xbe9b2cc6	-0.30307597
223	0xbeb471da	-0.35243112
224	0xbe01eb41	-0.12687398
225	0xbf2a6dfd	-0.6657408
226	0x3e6add84	0.22936064
227	0x3e1323b1	0.14369084
228	0xbdc5eb6a	-0.09664042
229	0x3de4336e	0.11142622
230	0xbdae9fdc	-0.085265845
231	0xbda2a791	-0.07942117
232	0x3d2ef93a	0.04271815
233	0x3e32ea62	0.17472222
234	0x3e80b098	0.2513473
235	0xbe466f5e	-0.1937842
236	0xbec1dd76	-0.37864274
237	0xbedde2e5	-0.4333717
238	0xbe063697	-0.13106762
239	0x3d27cb75	0.040965516
240	0x3e42f4a8	0.19038641
241	0x3ee3c81f	0.44488618
242	0xbe515f1c	-0.20446438
243	0x3bd9739c	0.006636096
244	0xbfd52111	-1.6650716
245	0xbd81d481	-0.0633936
246	0x3d5d6186	0.054048084
247	0x3bedbb2a	0.0072549777
248	0xbdbf96d9	-0.09354944
249	0xbf91df1d	-1.1396214
250	0x3e10335e	0.14082095
251	0xbdaeb245	-0.08530096
252	0xbbd8b481	-0.0066133146
253	0x3e4b7934	0.19870454
254	0xbf26b9a3	-0.6512701
255	0x3e4d2b8d	0.20036145

net.net.2.bias f4 [256]
0	0xbd61c133	-0.05511589
1	0x3bfd7aea	0.0077355998
2	0xbce07597	-0.027399821
3	0xbdc124e9	-0.09430868
4	0xbd5d468e	-0.054022364
5	0xbe08edeb	-0.13372009
6	0xbd9cb181	-0.07651044
7	0x3d18f299	0.037340734
8	0xbd96bfe3	-0.07360818
9	0xbe109d74	-0.14122564
10	0xbd360524	-0.044438496
11	0xbbbc3782	-0.0057439217
12	0xbd37aacd	-0.044840623
13	0x3e4c43db	0.1994776
14	0x3c56fdfe	0.01312208
15	0xbd848706	-0.06471066
16	0xbcab5d8f	-0.020918636
17	0xbb6342c5	-0.003467725
18	0xbd92a06c	-0.07159504
19	0x3d15df20	0.03658974
20	0xbc4e3ac8	-0.012587257
21	0xbc835a22	-0.01603419
22	0xbd1e2416	-0.038608633
23	0x3dcac141	0.099001415
24	0xbe32b0be	-0.17450234
25	0x3d05472b	0.032538574
26	0x3bf8faef	0.007598273
27	0xbd97b211	-0.0740701
28	0xbd542737	-0.05179521
29	0xbce10adf	-0.027471004
30	0xbdb3bbb7	-0.08776038
31	0x3a90def0	0.0011052769
32	0xbd6054d3	-0.054768395
33	0x3de65656	0.11246936
34	0xbd940a1b	-0.0722849
35	0xbd548878	-0.05188796
36	0xbd6edc67	-0.05831566
37	0x3c978177	0.01849435
38	0x3d43f3c8	0.04783991
39	0xbd37133f	-0.04469609
40	0xbd7f41a8	-0.062318474
41	0xbe100751	-0.14065291
42	0x3d2414aa	0.04005877
43	0x3c81f8b8	0.015865669
44	0xb9f918e1	-0.00047511517
45	0x3cf5e813	0.030017888
46	0xbd381783	-0.044944298
47	0x3c812e55	0.015769163
48	0xbe1b050a	-0.15138641
49	0x3b884891	0.004159041
50	0x3db0f75c	0.0864093
51	0xbc8c755c	-0.017145805
52	0x3d4d90c9	0.050186906
53	0xbd56232c	-0.052279636
54	0xbd0cde74	-0.034391835
55	0xbc2f3002	-0.010692598
56	0x3d8775dc	0.06614277
57	0xbd8f8404	-0.07007602
58	0x3cfd44ad	0.030916536
59	0xbd7b8d3f	-0.061414
60	0xb88b58a3	-6.6445464e-05
61	0x3b8b7368	0.004255701
62	0xbd854315	-0.065069355
63	0x3d7b698e	0.06137996
64	0xbc1032e5	-0.008801197
65	0xbdcc9c51	-0.099907525
66	0xbde72280	-0.11285877
67	0xbd48febd	-0.049071062
68	0x3d8d7f28	0.06909019
69	0xbad83488	-0.0016495148
70	0xbd1ea5b5	-0.03873225
71	0xbb95924d	-0.0045645596
72	0x3ddea068	0.10870439
73	0xbd29a86b	-0.04142038
74	0xbc37cb0a	-0.011217842
75	0x3cd2b65b	0.02572172
76	0xbd20ca0c	-0.039255187
77	0xbd270f3f	-0.040786024
78	0xbd266d3c	-0.040631518
79	0x3bf6942c	0.0075249877
80	0xbd76557b	-0.060140114
81	0x3c86bec1	0.01644838
82	0xbc96e344	-0.018418916
83	0xbde621fa	-0.11236949
84	0xbd8ec2bf	-0.069707386
85	0xbe241907	-0.16025172
86	0x3d45917b	0.048234444
87	0x3cce8515	0.025209943
88	0x3ddc8a4a	0.10768564
89	0xbcb04c37	-0.021520717
90	0xbcf2ccef	-0.029638736
91	0xbd5c8fa0	-0.05384791
92	0x3d66ee4c	0.0563796
93	0x3e00e816	0.12588534
94	0xbdbf44b4	-0.09339276
95	0xbd2fa7ba	-0.042884566
96	0xbd6f7f5d	-0.058471072
97	0xbc4d1b39	-0.012518697
98	0xbcbc5f76	-0.022994738
99	0x3ae7d2c4	0.0017686714
100	0xbc80f1cb	-0.015740296
101	0xbd0e8311	-0.034792963
102	0xbd4aef38	-0.049544543
103	0xbe0ad8bf	-0.13559245
104	0xbd5c10f5	-0.05372711
105	0x3d709e36	0.05874463
106	0xbda82e49	-0.08211953
107	0x3d9ead95	0.07747952
108	0xbd1f3c30	-0.03887576
109	0xbd02355a	-0.03178916
110	0xbcb86a04	-0.02251149
111	0x3dfac4b9	0.12244553
112	0x3d649228	0.055803448
113	0xbd3512c7	-0.04420736
114	0xbd35dfff	-0.044403072
115	0x3e036b72	0.12833956
116	0xbd9b8265	-0.0759323
117	0xbcc8d6f4	-0.02451656
118	0x3cead03b	0.028663745
119	0x3c983189	0.018578308
120	0xbcc88244	-0.024476178
121	0x3bc6d82a	0.0060682492
122	0x3d059f8a	0.03262285
123	0xbc3fee10	-0.011714473
124	0xbcf628f2	-0.030048821
125	0x3c000037	0.007812551
126	0xbca36bdf	-0.019948898
127	0xbd8ee393	-0.06977
128	0x3dc62d52	0.09676613
129	0x3d28ca2f	0.041208442
130	0xbd37441d	-0.044742692
131	0xbd4427e7	-0.047889616
132	0x3dc09631	0.09403647
133	0x3d538436	0.051639758
134	0xbd6813cb	-0.0566595
135	0xbdacd352	-0.08438744
136	0x3d467407	0.048450496
137	0xbda49b3c	-0.08037421
138	0x3b29d9bc	0.0025917133
139	0x3cd5e116	0.026108306
140	0xbd8c0a96	-0.068379566
141	0xbd21c7e7	-0.039497282
142	0xbd37f828	-0.044914395
143	0xbd68c1b8	-0.05682537
144	0x3cdd3863	0.027004426
145	0x3bc8c2d5	0.0061267414
146	0xbd435455	-0.047687847
147	0x3d91933d	0.071081616
148	0x3c103ce6	0.008803582
149	0xbd975020	-0.073883295
150	0x3c76b77e	0.015058396
151	0xbd0a7963	-0.03380717
152	0x3c4302bf	0.01190251
153	0x3ca58dd8	0.020209238
154	0xbda01066	-0.07815628
155	0x3c1a4fd2	0.009418445
156	0xbcad7607	-0.021174444
157	0x3d7a445d	0.061100353
158	0x3b6128e2	0.0034356643
159	0xbbb0bc82	-0.0053935656
160	0xbe2a6fcc	-0.1664421
161	0xbd9812bc	-0.07425448
162	0x3d0fb1b1	0.03508157
163	0x3d1beec9	0.03806952
164	0xbc420361	-0.011841626
165	0x3daa15a0	0.08304906
166	0xbe328b09	-0.1743585
167	0x3cef3042	0.029197816
168	0xbc485821	-0.012228043
169	0xbdb9deb2	-0.09075679
170	0xbddad3cd	-0.10684929
171	0xbd716a01	-0.058938984
172	0xbd03bbc8	-0.032161504
173	0x3ca1166a	0.019664008
174	0x3d319328	0.04335323
175	0xbd70b10b	-0.05876259
176	0xbd9c20c0	-0.07623434
177	0x3d08d1d8	0.033403248
178	0xbdaa5aaa	-0.08318074
179	0x3d8e18b3	0.06938305
180	0xbdb37b16	-0.08763711
181	0xbb53d153	-0.0032320812
182	0xb9bf7c13	-0.000365228
183	0xbdc6e19a	-0.09710999
184	0xbd7ec648	-0.062200814
185	0xbdc4c8b4	-0.096085936
186	0xbcfc4e72	-0.030799124
187	0xbc579994	-0.0131591745
188	0x3d23b8ef	0.03997129
189	0xbc02b768	-0.007978298
190	0x3d101f43	0.035186063
191	0xbcbdff07	-0.023192896
192	0x3aa31508	0.0012442181
193	0xbd3eb411	-0.046558443
194	0xbd905286	-0.0704699
195	0x3e4102d0	0.18848729
196	0xbda4a133	-0.08038559
197	0xbc1da0fd	-0.009620902
198	0x3da4e0ee	0.080507144
199	0x3e0aaebc	0.13543218
200	0xbcd990b6	-0.026558261
201	0xbdcdd4d2	-0.10050358
202	0xbc644564	-0.01393256
203	0x3da8452b	0.08216318
204	0xbd18383e	-0.03716301
205	0x3d4865a3	0.048925053
206	0x3cc66c20	0.02422148
207	0xbd2452cc	-0.040118024
208	0xbc9800cb	-0.018555066
209	0xbc5d1970	-0.013494834
210	0xbda831d6	-0.082126305
211	0xbcede6b8	-0.02904068
212	0xbb37aa4e	-0.0028025093
213	0xbd950ac2	-0.072774425
214	0xbd04f8f8	-0.032463998
215	0x3da7eb2b	0.081991516
216	0x3cf87337	0.030328376
217	0x3d7368ff	0.059426304
218	0x3cbb6350	0.022874504
219	0xbce92974	-0.02846215
220	0xbc39c2b6	-0.011337927
221	0x3cbf8971	0.023380967
222	0x3ca7a9cc	0.020466708
223	0xbb8b6420	-0.004253879
224	0x3c21cece	0.009875966
225	0x3dee3a75	0.116322435
226	0x3df7a8a6	0.12092714
227	0x3d789623	0.060690057
228	0x3d723f87	0.059142616
229	0xbbc36532	-0.005962991
230	0x3cf4fef0	0.02990672
231	0x3cd0da8f	0.025494842
232	0x3d370074	0.044678167
233	0xbd2856f5	-0.041098554
234	0xbd969f4f	-0.073546045
235	0x3e0240cd	0.12720032
236	0xbd506604	-0.05087854
237	0x3d35bce3	0.04436959
238	0x3c84e13d	0.016220683
239	0x3d72eecb	0.059309762
240	0x3d200313	0.03906543
241	0x3c8c2dda	0.017111707
242	0x3e20b7a7	0.15695058
243	0xbd372fc1	-0.044723276
244	0xbc626a01	-0.013819219
245	0x3d10fb21	0.035395745
246	0x3d15fe6f	0.0366196
247	0x39da13c2	0.0004159492
248	0xbd0f45a4	-0.034978524
249	0xbd2942bb	-0.041323405
250	0x3d87c3f3	0.06629171
251	0x3cf4e86b	0.029895982
252	0xbc801066	-0.01563282
253	0xbda5674c	-0.08076343
254	0xbda321c4	-0.07965425
255	0xbc4326b7	-0.011911086

net.net.4.weight f4 [4, 256]
0	0x3f886ebd	1.0658795
1	0x3d0c3769	0.03423253
2	0xbca647e5	-0.020297954
3	0x3bde7386	0.006788674
4	0xbd349f1f	-0.044097062
5	0x3ec71cfc	0.388893
6	0xbcd4f34a	-0.025994916
7	0x3f2496be	0.64292514
8	0xbed86cbf	-0.42270467
9	0x3f304ed2	0.6887027
10	0x3cd5f813	0.026119268
11	0xbd3e0aa3	-0.046396863
12	0x3ca0dc51	0.019636305
13	0xbce27f68	-0.027648643
14	0xbd5c27ef	-0.05374902
15	0x3f2536cf	0.64536756
16	0xbc1299f2	-0.008947836
17	0x3e82a1b4	0.25513995
18	0xbcca8e0c	-0.024725936
19	0xbd8bf3a7	-0.06833582
20	0xbd16e87d	-0.03684281
21	0xbbc8f620	-0.006132856
22	0x3f423005	0.7585452
23	0x3b1c1e43	0.0023821748
24	0xbda01fd2	-0.07818569
25	0x3ab882d9	0.0014077082
26	0x3f928d24	1.1449323
27	0xbd551df6	-0.052030526
28	0x3d29394a	0.0413144
29	0x3d09bdcb	0.033628266
30	0x3d94b3e5	0.07260875
31	0x3bb2d0a1	0.0054569994
32	0x3e935b18	0.28780437
33	0xbf4dadab	-0.8034312
34	0x3c262855	0.010141452
35	0xbc9f3f43	-0.019439345
36	0x3cb4ebd4	0.022085108
37	0x3d230af5	0.03980537
38	0x3e3d213c	0.18469709
39	0xbc7ad1eb	-0.015308837
40	0xbc778861	-0.015108199
41	0x3f71bb87	0.9442677
42	0xbedd3306	-0.4320299
43	0xbce32210	-0.027726203
44	0xbcbe67e8	-0.023242906
45	0x3e7733b5	0.24140818
46	0x3d3dffd7	0.046386566
47	0xbe2b6a14	-0.16739684
48	0x3bd4fd93	0.006499955
49	0x3f8b13ff	1.0865477
50	0xbebd3018	-0.36950755
51	0xbd16219b	-0.036653142
52	0xbf608031	-0.87695605
53	0x3d3e68a8	0.046486527
54	0xbcf2dc75	-0.029646138
55	0x3c277a61	0.0102220485
56	0xbd09255f	-0.033482905
57	0x3e95c782	0.29253775
58	0x3cf67c86	0.030088674
59	0xbc9c0de1	-0.019049587
60	0xbcc57ed6	-0.024108332
61	0xbe284a15	-0.1643451
62	0x3d699ddc	0.057035312
63	0xbeb5c0a1	-0.35498527
64	0xbf5da7dd	-0.86584264
65	0x3ec81a91	0.3908277
66	0xbf13b988	-0.57704973
67	0xbd2972ee	-0.04136937
68	0xbefa3867	-0.48871157
69	0xbd390c5d	-0.045177806
70	0x3f659ef8	0.8969569
71	0x3d018897	0.031624403
72	0x3ea1d2e6	0.31606215
73	0x3cd9b764	0.026576705
74	0x3a6b7768	0.00089823315
75	0x3e5545c6	0.20827398
76	0xbca1133f	-0.019662498
77	0x3d4cf1e7	0.050035384
78	0x3d016d9f	0.031598683
79	0xbe57d561	-0.21077491
80	0x3fb3bed1	1.4042608
81	0xbee75d0d	-0.4518818
82	0x3ed6269d	0.41826335
83	0xbef2e66d	-0.47441426
84	0xbbcc82c8	-0.0062411763
85	0x3f2398ef	0.63905233
86	0xbe28617b	-0.16443436
87	0x3e0bd1e0	0.1365428
88	0xbe86868d	-0.2627453
89	0xbb7687f9	-0.0037617667
90	0x3d28a7b5	0.041175563
91	0x3f161079	0.58618885
92	0xbecba388	-0.39773202
93	0xbe2d3663	-0.16915278
94	0xbf58339c	-0.8445375
95	0x3dfa5fe7	0.12225323
96	0xbf763723	-0.9617788
97	0xbb315f0a	-0.0027064704
98	0x3f225027	0.6340355
99	0xbd50839d	-0.050906766
100	0xbe94b3d7	-0.29043457
101	0xbc21d0ed	-0.009876472
102	0xbd2cb45d	-0.042164195
103	0xbd25037c	-0.040286526
104	0x3bad8d72	0.0052964026
105	0xbeec5153	-0.46155795
106	0xbe26d88d	-0.16293545
107	0x3f7da43e	0.9907874
108	0x3c51aea6	0.012797987
109	0xbd426acd	-0.047465134
110	0x3f0ea413	0.5571911
111	0x3eb87635	0.36027685
112	0x3eebed42	0.4607945
113	0x3cae0524	0.021242686
114	0xbc938482	-0.01800752
115	0xbef8737a	-0.48525602
116	0xc0034fef	-2.0517538
117	0xbbed6ce7	-0.007245648
118	0x3a23d8eb	0.000625028
119	0xbc1ac5ac	-0.009446543
120	0x400448a1	2.066933
121	0xba7bbac4	-0.00096027204
122	0x3cc717a3	0.024303263
123	0xbce11094	-0.027473725
124	0xbe4fffad	-0.20312376
125	0x3e3c771d	0.18404813
126	0x3d004c70	0.031322896
127	0x3c3a119b	0.0113567365
128	0xbf590295	-0.84769565
129	0x3f8d379d	1.1032597
130	0x3ccbe594	0.024889745
131	0xbc320a66	-0.010866737
132	0x3f0de561	0.5542813
133	0xbd91f157	-0.0712611
134	0xbf3dcbc4	-0.74139047
135	0xbf731476	-0.94953096
136	0xbfb7919d	-1.4341313
137	0xbfa8cc42	-1.3187335
138	0x3f1e147d	0.6175001
139	0x3eadd560	0.33951855
140	0xbe87e4e8	-0.2654183
141	0x3bbb578e	0.0057172244
142	0xbd3c1fe8	-0.045928866
143	0x3cfb7aee	0.030698266
144	0xbe93a1c2	-0.2883435
145	0xbca9d4ec	-0.020731412
146	0x3d1a0e24	0.03761114
147	0xbe8d2b09	-0.27571896
148	0x3f145c47	0.57953304
149	0xbccfb991	-0.02535704
150	0x3cede3c2	0.029039267
151	0x3d193d08	0.03741172
152	0x3faa36ea	1.3298008
153	0x3dd81802	0.10551454
154	0xbe9921b8	-0.29908538
155	0x3c993aff	0.01870489
156	0xbc95b40b	-0.018274328
157	0x3f593496	0.84845865
158	0xbca2160f	-0.019785909
159	0xbe63df72	-0.22253206
160	0x3db2e8b3	0.0873579
161	0x3c1ec506	0.009690529
162	0xbdac627e	-0.084172234
163	0x3ebf0a3f	0.37312505
164	0xbe9222a3	-0.2854205
165	0x3e20abba	0.15690508
166	0xbf077261	-0.52908903
167	0x3bf7a365	0.00755732
168	0x3e736b0e	0.23771307
169	0xbe253c88	-0.16136372
170	0xbcbfc201	-0.023407938
171	0xbd4c0fa0	-0.04981959
172	0x3d448987	0.04798272
173	0xbc5c229f	-0.013435989
174	0x3dce97ce	0.10087548
175	0xbd20f5e5	-0.039297003
176	0xbcf2ca8c	-0.029637598
177	0x3ce99097	0.028511329
178	0x3c4977e1	0.012296648
179	0x3eb0019c	0.34376228
180	0x3e2df8f3	0.16989498
181	0x3d48d13a	0.04902766
182	0x3c04e29b	0.008110668
183	0xbf3a1bb0	-0.726985
184	0x3cca1bf5	0.024671534
185	0xbfa5ea4a	-1.2962124
186	0x3e5916d7	0.21200119
187	0x3c886b96	0.016652863
188	0xbe92e3d6	-0.2868945
189	0xbd6a2844	-0.057167307
190	0x3e65068c	0.22365779
191	0x3cc251ab	0.023720583
192	0xbd6b7cd6	-0.0574921
193	0x3eb8bef0	0.36083174
194	0x3d09a1b9	0.033601496
195	0xbeb93552	-0.36173493
196	0x3d056082	0.03256274
197	0xbbb4b287	-0.005514446
198	0x3e947329	0.2899411
199	0xbdbb244b	-0.09137782
200	0x3c8d2ab1	0.01723227
201	0x3e5c2c74	0.21501333
202	0xbf0a10bd	-0.5393179
203	0x3d1f1bd0	0.038844883
204	0xbd2e86fc	-0.0426092
205	0x3f34abe6	0.70574796
206	0xbd73f758	-0.059562057
207	0x3d04aaf2	0.03238959
208	0xbe278feb	-0.16363494
209	0x3ee4d954	0.44697058
210	0x3d9ff918	0.07811183
211	0xbc74b839	-0.0149365
212	0xbe5eab92	-0.21745136
213	0xbd2c9063	-0.042129885
214	0x3c89f662	0.016841117
215	0xbe4cbb8a	-0.19993415
216	0xbe18b706	-0.14913568
217	0xbf6a8029	-0.91601807
218	0xbca0cbdd	-0.01962846
219	0x3c129ff1	0.008949266
220	0xbcdf3b01	-0.027249815
221	0x3c87d2b4	0.016579963
222	0x3e7a900c	0.24469012
223	0xbc5f19f2	-0.013617026
224	0xbd37ce6b	-0.04487459
225	0xbf5e639c	-0.8687074
226	0x3f09750c	0.53694224
227	0x3e97064f	0.29497
228	0x3f0c04f1	0.5469504
229	0x3ccf8f57	0.025336904
230	0xbbe03a09	-0.006842856
231	0xbf562aef	-0.8365926
232	0xbf79ef1a	-0.97630465
233	0x3d238038	0.0399172
234	0xbc19239f	-0.009346872
235	0xbd017f90	-0.031615794
236	0x3caef928	0.021359041
237	0xbdb712f7	-0.08939164
238	0xbc80ccc5	-0.015722642
239	0x3d8eb63f	0.069683544
240	0x3df7c145	0.1209741
241	0x3ce8ffe7	0.028442336
242	0xbecb9fd5	-0.3977038
243	0xbcf32c6b	-0.029684266
244	0xbd82f7cc	-0.0639492
245	0x3cf8db29	0.030377941
246	0x3cb686ec	0.022281133
247	0x3f531b33	0.8246338
248	0xbc409def	-0.011756404
249	0xbede7aaf	-0.43452975
250	0x3ea59237	0.32338116
251	0xbdd2dfce	-0.102965936
252	0xbf469af2	-0.7758018
253	0xbf031a25	-0.5121177
254	0xc0063c2e	-2.097423
255	0xbebbcc35	-0.36679235

net.net.4.bias f4 [4]
0	0xbcc83480	-0.024439096
1	0xbd909db3	-0.07061329
2	0xbee167e9	-0.4402459
3	0xbec4686f	-0.38360927

net.net.0.weight f4 [256, 9]
0	0xbe77bf7a	-0.24194136
1	0x3f06bbf4	0.52630544
2	0xbdaf316f	-0.085543506
3	0xbeebb1b1	-0.46034005
4	0x3e43ec12	0.19133022
5	0x3ee08960	0.4385481
6	0xbe96b57e	-0.29435343
7	0xbe69f968	-0.22849047
8	0x3df18da3	0.11794593
9	0x3dd5669f	0.10419964
10	0xbd067016	-0.032821737
11	0x3e0183b9	0.12647904
12	0x3edb69c5	0.42854133
13	0x3f137299	0.5759674
14	0xbf51850e	-0.8184365
15	0x3e57fa68	0.21091616
16	0xbd348e30	-0.044080913
17	0xbd9baf42	-0.07601787
18	0x3e3ae7e2	0.18252519
19	0xbdb08ecd	-0.08620987
20	0x3d78e80f	0.060768183
21	0x3dfc040a	0.12305458
22	0x3f7949c7	0.973782
23	0xbed6f080	-0.41980362
24	0xbea0b7cd	-0.3139023
25	0x3db6b1cf	0.08920633
26	0x3e566c0b	0.20939653
27	0x3e57b70c	0.2106592
28	0x3f4662f7	0.7749476
29	0x3e02733c	0.12739271
30	0x3e9fd390	0.31216097
31	0xbe5275a4	-0.20552689
32	0x3e6a4ead	0.22881575
33	0x3df1e645	0.118114986
34	0x3cc3afdc	0.023887567
35	0x3d7a22ca	0.061068334
36	0xbde0d8d6	-0.10978858
37	0xbed1ccf1	-0.4097667
38	0x3d84fee2	0.064939275
39	0xbe9aab10	-0.30208635
40	0xbdefa456	-0.117012665
41	0xbf6ea212	-0.9321605
42	0xbf665427	-0.89972156
43	0x3eda314b	0.42615733
44	0xbe897db2	-0.2685371
45	0x3d05ae06	0.032636665
46	0x3ea6e041	0.32592967
47	0xbd8e56ac	-0.06950125
48	0xbe1c1f2b	-0.15246265
49	0x3e1a535f	0.15070866
50	0x3e972850	0.29522943
51	0xbeabd2ba	-0.3355921
52	0x3e8cfb22	0.2753535
53	0xbe5dd202	-0.21662143
54	0x3f10c34e	0.5654801
55	0x3da95766	0.08268623
56	0x3e86de43	0.26341447
57	0x3ec19f46	0.37816828
58	0x3dbcc807	0.0921784
59	0xbbe87bd7	-0.007094841
60	0xbeadd30a	-0.33950073
61	0x3db5cf1a	0.08877392
62	0x3c2de57f	0.010613798
63	0xbf0c53e9	-0.54815537
64	0x3d8529a1	0.06502081
65	0xbe2e3e0a	-0.17015854
66	0xbead2c48	-0.33822846
67	0x3e777bf4	0.24168378
68	0x3f0d5f38	0.5522342
69	0xbef02f21	-0.46910957
70	0x3dab157a	0.08353706
71	0x3cd67378	0.026178107
72	0xbda953c1	-0.08267928
73	0x3f2594ce	0.6468018
74	0xbdc867bd	-0.097854115
75	0x3edf4fb6	0.43615502
76	0x3f20ee4c	0.6286361
77	0xbe7820f6	-0.24231324
78	0xbe18a9e9	-0.14908566
79	0xbe7043da	-0.23463383
80	0xbe7b4deb	-0.24541442
81	0xbe93c97a	-0.28864652
82	0x3dc62aed	0.09676156
83	0x3dd58f02	0.10427667
84	0xbf2898ab	-0.6585795
85	0x3f010227	0.5039391
86	0x3ebedb2b	0.37276587
87	0xbe23ea4e	-0.16007349
88	0xbdbfc8e2	-0.09364487
89	0xbd73d0e5	-0.05952539
90	0xbddc93f6	-0.10770409
91	0xbea0d1de	-0.31410116
92	0xbdc225bd	-0.09479854
93	0xbe10b272	-0.14130571
94	0x3ea6de50	0.32591486
95	0xbdb44ed4	-0.08804098
96	0x3dff824f	0.12476026
97	0xbe3dce4b	-0.18535726
98	0x3c9f75e6	0.019465398
99	0x3d081c25	0.033229966
100	0x3e8a5b48	0.27022767
101	0x3ebaf2a2	0.3651324
102	0x3db831c1	0.08993865
103	0xbf44b534	-0.76838994
104	0x3ee168db	0.4402531
105	0xbe7ccf55	-0.24688466
106	0xbc1a286d	-0.009409052
107	0x3d10da35	0.03536435
108	0x3dba2fad	0.09091125
109	0x3ee54902	0.44782263
110	0x3e234ead	0.15947981
111	0xbf155e2f	-0.5834684
112	0xbe87381e	-0.26410002
113	0x3e0f7532	0.1400955
114	0xbee9ae45	-0.4564077
115	0x3e0dbcc1	0.13841535
116	0x3e6f03fc	0.23341364
117	0xbf049b5e	-0.5179957
118	0x3eb44b47	0.35213682
119	0x3e882c63	0.26596364
120	0xbe3b97fa	-0.18319693
121	0x3f468086	0.7753986
122	0x3f1f789d	0.62293416
123	0xbdab2f79	-0.08358664
124	0xbdb59d2d	-0.088678695
125	0x3ccac033	0.02474985
126	0x3ec399f0	0.38203382
127	0x3f1d00f9	0.6132961
128	0x3a77014e	0.00094224967
129	0x3e6f98d5	0.23398145
130	0x3aa35f24	0.0012464267
131	0xbe8394bc	-0.25699413
132	0x3e3cb8bf	0.1842985
133	0x3e78353d	0.24239059
134	0xbeb2ba99	-0.34907988
135	0xbeadd0ab	-0.33948264
136	0xbea5c73d	-0.3237857
137	0x3e9c000a	0.3046878
138	0xbeab2bfd	-0.33431998
139	0x3ed4cc58	0.41562152
140	0xbeb5fa11	-0.35542348
141	0x3ec421d6	0.38307065
142	0xbe3bbdb4	-0.18334085
143	0xbecf8e88	-0.4053843
144	0x3e751e87	0.23937427
145	0x3f4a1df9	0.78951985
146	0xbef2e5ab	-0.47440848
147	0x3e04e87e	0.12979314
148	0xbd955d5f	-0.072932
149	0xbf16f8e5	-0.5897353
150	0x3dc86b80	0.09786129
151	0x3d96bbdf	0.07360052
152	0xbdd38590	-0.103282094
153	0xbf237ae4	-0.6385939
154	0x3e43fe9c	0.19140095
155	0x3cfe3c2e	0.031034555
156	0xbd915f80	-0.07098293
157	0xbdacdf1c	-0.08440992
158	0xbe46f43b	-0.19429104
159	0xbee418e0	-0.44550228
160	0x3d3ba29b	0.04580937
161	0x3da796c9	0.08183057
162	0xbdb129fe	-0.086505875
163	0x3e299658	0.16561258
164	0xbdd0c8ee	-0.10194574
165	0xbe1a3b09	-0.15061583
166	0xbea45041	-0.3209248
167	0x3f487a7a	0.78311884
168	0xbe854909	-0.26032284
169	0xbd4d8134	-0.050172046
170	0xbe6531e2	-0.2238231
171	0xbf02a254	-0.51028943
172	0x3dee6e81	0.11642171
173	0xbdb8923b	-0.09012266
174	0x3d8a060b	0.06739434
175	0xbe90b3f0	-0.2826228
176	0xbf2f7199	-0.6853271
177	0x3e91fae4	0.28511727
178	0xbd53e1f3	-0.051729154
179	0x3dee3b74	0.116324335
180	0xbe64253f	-0.22279833
181	0x3dec7d39	0.11547322
182	0x3e19e5fb	0.15029137
183	0xbeb26865	-0.34845272
184	0x3fc23674	1.5172868
185	0xbe314530	-0.17311549
186	0x3e5047bd	0.20339866
187	0xbd82350d	-0.06357775
188	0xbdc00611	-0.09376157
189	0xbe4c0428	-0.1992346
190	0x3da96e39	0.082729764
191	0x3ed6c276	0.41945237
192	0xbe81d6e5	-0.25359264
193	0xbe36ee36	-0.17864308
194	0xbf10c214	-0.5654614
195	0x3ed607e3	0.41802892
196	0x3e18805b	0.14892714
197	0x3e13234b	0.14368932
198	0x3dedbbad	0.11608062
199	0x3e564f57	0.20928703
200	0x3e99c25f	0.30031106
201	0xbecb7c1b	-0.39743122
202	0x3ebd1b4d	0.3693489
203	0xbf31d25e	-0.6946162
204	0x3d8ca86f	0.06868064
205	0xb957f3c3	-0.00020594806
206	0x3ce2abfb	0.027669897
207	0xbedf3a14	-0.43598998
208	0x3cad7003	0.021171575
209	0xbe248f00	-0.16070175
210	0x3db70709	0.08936889
211	0xbd8aeba5	-0.06783227
212	0x3e40c2f8	0.18824375
213	0x3ed20c64	0.41025078
214	0x3d8f147d	0.0698633
215	0xbddc35a4	-0.10752419
216	0xbc8aeaf6	-0.016957741
217	0xbf010b89	-0.50408226
218	0x3ec60ff4	0.38684046
219	0x3d18d66c	0.037313864
220	0xbea752cd	-0.3268036
221	0x3f6c9dea	0.9242846
222	0x3e88aa80	0.2669258
223	0x3dc80788	0.097670615
224	0x3e4ac9cb	0.1980354
225	0xbdfa6f1e	-0.12228225
226	0x3ec799a3	0.38984403
227	0xbe9c7c8e	-0.30563778
228	0xbeb0f7f4	-0.34564173
229	0xbd93c1b8	-0.07214683
230	0xbdd51515	-0.10404412
231	0xbea93a96	-0.3305251
232	0xbdf93bf7	-0.121696405
233	0xbe731cce	-0.23741457
234	0x3dc2859f	0.094981425
235	0xbd653385	-0.055957336
236	0x3e9f751c	0.31144035
237	0x3e8e177e	0.27752298
238	0xbe86931a	-0.26284105
239	0x3f1ca2fb	0.6118619
240	0xbefac3b2	-0.4897743
241	0xbca782d3	-0.020448124
242	0xbd6bbf87	-0.0575557
243	0x3ebd922d	0.37025586
244	0x3f3be11a	0.7339035
245	0x3e323d24	0.17406136
246	0xbd5d9a36	-0.054102145
247	0x3dd4f1bf	0.10397672
248	0xbf1e5608	-0.61850023
249	0x3cdb60df	0.02677959
250	0xbe102e65	-0.14080198
251	0x3df19f77	0.11797994
252	0x3dd9a843	0.106277965
253	0x3c9d7d16	0.019224685
254	0xbe2b4a47	-0.16727553
255	0x3f069d86	0.5258411

net.net.0.bias f4 [256]
0	0x3e0774ab	0.13228099
1	0x3da1eed7	0.07906883
2	0xbe8fc07b	-0.28076538
3	0xbe93e824	-0.28888047
4	0xbe4f74e9	-0.20259441
5	0x3e247955	0.1606191
6	0x3dd219fd	0.10258863
7	0x3de48c32	0.11159553
8	0xbe59dbe8	-0.21275294
9	0xbe311f24	-0.17297035
10	0x3e567ef9	0.20946874
11	0x3e66d27d	0.22541232
12	0xbe1575e8	-0.14595759
13	0x3e3df129	0.18549027
14	0x3c67f9b5	0.014158656
15	0xbe1a315c	-0.15057892
16	0x3e83da07	0.2575228
17	0xbd35316e	-0.044236593
18	0xbe1cd09e	-0.15313956
19	0xbe3a2cfc	-0.18181223
20	0x3e2a86df	0.16653012
21	0xbe9db6fe	-0.30803674
22	0xbe784b5f	-0.24247502
23	0xbe83526a	-0.25648814
24	0xbbb3f36d	-0.005491665
25	0x3dc420ff	0.09576606
26	0x3e7b157d	0.24519916
27	0x3e3eff99	0.1865219
28	0xbdb05788	-0.08610445
29	0xbe4441fd	-0.19165798
30	0xbe17d3c3	-0.14826874
31	0xbeb3765b	-0.35051236
32	0xbcf6d35e	-0.030130085
33	0x3da1bfa5	0.078978814
34	0x3e52bc13	0.20579557
35	0xbe84c81b	-0.25933918
36	0xbafdb480	-0.0019356161
37	0xbeb12daa	-0.3460515
38	0x3e80a4cc	0.2512573
39	0x3cb64fef	0.022254912
40	0xbe9223aa	-0.28542835
41	0xbd9d63c4	-0.076850444
42	0xbd2caf50	-0.04215938
43	0x3d5bfe30	0.05370921
44	0xbcb4041a	-0.021974612
45	0xbeb2dc65	-0.34933773
46	0x3e8c021f	0.27345368
47	0xbc969448	-0.018381253
48	0xbd68f3a8	-0.056872994
49	0xbe2d36f2	-0.16915491
50	0xbe907c2b	-0.28219733
51	0x3dacd68c	0.08439359
52	0x3ea640de	0.32471365
53	0xbe8d0306	-0.2754137
54	0xbe79a94a	-0.24380985
55	0xbc7f17e5	-0.015569662
56	0x3d961fe6	0.07330303
57	0x3ea7fcff	0.32810208
58	0xbe882006	-0.26586932
59	0xbeb7238b	-0.35769305
60	0xbcbbc7cc	-0.022922419
61	0xbd98400b	-0.0743409
62	0xbcc359c6	-0.023846518
63	0x3d36aca1	0.044598226
64	0xbecced44	-0.4002477
65	0xbe936c60	-0.2879362
66	0xbbb18fcd	-0.0054187537
67	0x3e712851	0.23550536
68	0xbe6447c6	-0.22293004
69	0x3e9a85e0	0.30180264
70	0x3ed33177	0.41248676
71	0xbe938b1e	-0.28817075
72	0x3e850ebf	0.25987813
73	0xbdc8cb12	-0.098043576
74	0xbe804a3f	-0.25056645
75	0xbde40528	-0.11133796
76	0xbd4ac3cc	-0.049503133
77	0x3dc6e08c	0.09710798
78	0xbe06f62a	-0.13179842
79	0xbecc246d	-0.3987154
80	0x3e59d46b	0.21272437
81	0x3e9822e7	0.29714128
82	0xbe7be95a	-0.24600735
83	0x3e09b77e	0.13448903
84	0x3e0bf211	0.1366656
85	0xbe9b48d2	-0.30328995
86	0x3ea0eff3	0.31433067
87	0x3e3e8fac	0.18609494
88	0xbea6ddb3	-0.32591018
89	0xbe84a539	-0.25907305
90	0xbd5f565d	-0.05452572
91	0x3ea79321	0.32729438
92	0xbd6e674d	-0.058203984
93	0xbeebdd30	-0.4606719
94	0x3edb0e5e	0.427844
95	0xbe63cb5e	-0.22245547
96	0xbe8241b6	-0.25440758
97	0x3e71cfe4	0.2361446
98	0x3de66d10	0.11251271
99	0xbe3914f9	-0.18074407
100	0x3e211e5d	0.15734239
101	0x3e873a4e	0.2641167
102	0xbe346982	-0.17618373
103	0xbe8a26b8	-0.26982665
104	0xbec6c14c	-0.3881935
105	0xbe6bedad	-0.23039885
106	0x3eab345f	0.33438393
107	0x3eaac41b	0.33352742
108	0xba3c30b2	-0.0007178887
109	0xbe267ce2	-0.16258577
110	0x3d0e8807	0.034797695
111	0xbe53624d	-0.20642968
112	0xbeed4cc0	-0.46347618
113	0xbe31e0dd	-0.17370935
114	0xbbe0ba3b	-0.006858138
115	0x3dd0f961	0.10203815
116	0x3dfc9078	0.12332243
117	0x3c1ef453	0.009701806
118	0xbec876eb	-0.39153227
119	0xbe9e1dbb	-0.30882058
120	0x3ef1b371	0.47207215
121	0xbe9caa40	-0.3059864
122	0xbda0a469	-0.07843859
123	0x3e500dde	0.2031779
124	0xbdc52c89	-0.09627635
125	0x3d92208b	0.07135113
126	0xbd800551	-0.06251014
127	0x3e83e3d9	0.2575977
128	0x3d04f9d2	0.03246481
129	0x3e0d3182	0.13788417
130	0xbe8ea3d8	-0.27859378
131	0x3d3f93dd	0.046771873
132	0xbeec9938	-0.46210647
133	0xbc50c34c	-0.012741875
134	0xbe21031d	-0.15723844
135	0x3e2f2d34	0.17107087
136	0xbeb60e58	-0.35557818
137	0xbe5f5fd3	-0.21813898
138	0x3df000a7	0.117188744
139	0xbebbca80	-0.36677933
140	0xbe2e4c8e	-0.17021391
141	0x3dba35f0	0.09092319
142	0xbec3860b	-0.38188204
143	0xbeb678ef	-0.3563914
144	0xbe5c25da	-0.21498814
145	0x3e3e0af8	0.18558872
146	0xbe5f8304	-0.21827322
147	0x3deb1e91	0.114804395
148	0xbde23e13	-0.11046996
149	0x3e93f22f	0.2889571
150	0xbe739bea	-0.23789945
151	0xbed2fc76	-0.41208237
152	0x3ca7de14	0.020491637
153	0x3b8c102d	0.0042743892
154	0x3cb4e0c8	0.02207984
155	0x3c981686	0.018565428
156	0x3d859f71	0.06524552
157	0xbebad163	-0.36487874
158	0xbdef3429	-0.11679871
159	0xbda390e3	-0.07986619
160	0x3db33509	0.0875035
161	0xbe46ff34	-0.1943329
162	0x3e8d6f73	0.27624092
163	0xbea1947b	-0.31558594
164	0x3cbe9572	0.02326462
165	0x3e2ebe90	0.17064881
166	0xbe179fec	-0.14807099
167	0x3de3bc39	0.11119885
168	0x3d0143c0	0.031558752
169	0x3e3a4733	0.18191223
170	0x3e3476af	0.17623399
171	0xbe4c885c	-0.19973892
172	0x3d216eac	0.039412186
173	0x3eca4b3d	0.39510527
174	0xbe284fe0	-0.1643672
175	0xbe9c11d1	-0.30482343
176	0xbe458c8c	-0.19291896
177	0x3e6e91c2	0.2329779
178	0x3eb00add	0.34383288
179	0xbe6eeedc	-0.23333305
180	0xbdff3750	-0.12461722
181	0x3e81a429	0.25320557
182	0xbe317e34	-0.17333299
183	0xbe1524f1	-0.14564873
184	0xbe864fab	-0.26232657
185	0x3e5c1a8b	0.214945
186	0x3d116a3d	0.035501707
187	0x3e885816	0.26629704
188	0xbbb0d1bb	-0.0053960956
189	0xbec8a77c	-0.3919028
190	0x3e9f417c	0.31104648
191	0x3cd9c95c	0.026585273
192	0x3e83ba6f	0.25728175
193	0xbe67d54d	-0.22639962
194	0x3c2ae4a9	0.010430493
195	0x3e57deeb	0.2108113
196	0x3e794309	0.24341978
197	0x39fb8d2f	0.0004797964
198	0x3e05a083	0.13049512
199	0xbb66b9b0	-0.0035205893
200	0xbe0fc4a4	-0.14039856
201	0xbe9f24fa	-0.31082898
202	0xbe0c7221	-0.13715412
203	0x3c7e921b	0.015537764
204	0x3d620847	0.055183675
205	0x3e8fb39a	0.28066713
206	0xbd3b1bc2	-0.04568077
207	0xbe88b3a5	-0.26699558
208	0x3cefc179	0.02926706
209	0x3dc92fcd	0.098235704
210	0x3da726b8	0.08161682
211	0x3d3e99d5	0.046533424
212	0xbd602e9c	-0.05473195
213	0x3cab3ebe	0.020903941
214	0xbe92b8bc	-0.28656566
215	0xbdc8e4f9	-0.09809298
216	0x3df518d2	0.11967625
217	0xbce6a503	-0.028154856
218	0x3dcbbca0	0.09948087
219	0xbd166367	-0.03671589
220	0xbd68ae96	-0.056807123
221	0x3e8e3f19	0.27782515
222	0x3e7fe3cf	0.24989246
223	0xbd8e3f42	-0.06945659
224	0x3c418abb	0.011812861
225	0x3eb564cf	0.35428473
226	0xbda221b9	-0.07916588
227	0xbe0a2c62	-0.13493493
228	0xbe0d3399	-0.13789214
229	0x3de56ba2	0.1120217
230	0xbe660df4	-0.2246626
231	0x3d909c9d	0.070611216
232	0xbeb748e1	-0.3579779
233	0x3eacc5c2	0.33744627
234	0xbed6c9ce	-0.4195084
235	0xbe85b5a2	-0.26115137
236	0xbdf9be26	-0.12194471
237	0xbedaa0c5	-0.42700782
238	0x3d9004e7	0.07032185
239	0xbee1740f	-0.44033858
240	0xbeb6c268	-0.35695195
241	0xbd0fef83	-0.035140526
242	0xbe4d3025	-0.20037897
243	0x3da564bc	0.08075854
244	0x3d000119	0.031251047
245	0xbe3e2b96	-0.18571314
246	0x3e954387	0.29153082
247	0x3e8b1e38	0.27171493
248	0xbd1d3047	-0.03837612
249	0xbe41e1db	-0.18933813
250	0xbe4edd02	-0.20201495
251	0x3e3480dc	0.17627281
252	0x3ec01989	0.37519482
253	0xbe802a77	-0.25032398
254	0xbded535c	-0.11588165
255	0x3c833aec	0.016019307
